modular/models/05_going_modular_script_mode_tinyvgg_model.pth (torch, 37557 bytes, 10 tensors)

conv_block_1.0.weight f4 [10, 3, 3, 3]
000000 be d4 19 39 3c f9 3e be 50 fd 13 be ac d5 be 3d
       0.0001467047 -0.18649763 -0.144521 0.093180984
000010 8d 97 9f bd 8b ba 0b 3d 93 1c f9 bd 9e 18 f7 3c
       -0.07792578 0.034113448 -0.12163653 0.030163106
000020 4c fd 2e be 5f b1 6f 3d 4e f1 22 3e 76 7b 0d 3d
       -0.17088813 0.058518764 0.15912363 0.03454157
000030 38 f4 15 be c4 4f 33 3e dc 99 94 bc d1 90 05 3e
       -0.14643943 0.17510897 -0.018139772 0.13043524
000040 6f dc f5 b9 ed 28 9f 3d b3 30 24 bd 61 6d 8f bd
       -0.00046894277 0.07771478 -0.040085506 -0.07003284
000050 cb be 51 be 3b 40 3a be 34 7b 83 bc 4d 92 e2 3d
       -0.20482938 -0.18188564 -0.016049959 0.11063061
000060 22 84 35 be 0f 7d 48 3c 42 d7 43 be 4a 1e 12 3e
       -0.17726186 0.012236848 -0.19125083 0.14269367
000070 69 29 d1 3c 73 a2 13 3c 80 da 2e 3e e8 e9 3e 3e
       0.025532441 0.009010899 0.17075539 0.18643916
000080 ce 61 04 bd e7 54 de bc 20 1b 34 3e be e5 fb bb
       -0.032319836 -0.027140094 0.17588472 -0.0076872995
000090 e1 d3 1c be ab 1b 9d 3c e4 4b dd 3c 64 66 55 bb
       -0.153152 0.019178232 0.027013727 -0.003256225
0000a0 b1 b3 b7 bd ff eb 38 bd 0c 20 a6 3d 42 38 81 3d
       -0.0896982 -0.04514694 0.08111581 0.063095585
0000b0 4c b3 98 3c a1 25 1f 3e 13 fa c4 bd af 0b cb bd
       0.018640183 0.15541698 -0.0961801 -0.09914338
0000c0 1b 76 16 3d d2 ac 43 3e 63 95 a8 bc 75 d5 a3 bd
       0.036733728 0.19108894 -0.020579046 -0.07999698
0000d0 40 3d 9d 3c 27 41 25 bd 37 af 14 3d ff dc 22 be
       0.019194245 -0.040345337 0.03629991 -0.15904616
0000e0 16 0c bd bc fd c3 24 3e 64 29 d1 3d 99 b7 3c 3e
       -0.023077052 0.16090389 0.10212973 0.18429412
0000f0 92 d5 0a 3e bb 2c 40 3e 78 0b a6 bd 9c 54 57 3c
       0.13558033 0.18767063 -0.08107656 0.013142731
000100 8c 68 d7 3a a5 3c c7 bd 91 e2 b7 3d fb 1c 74 bd
       0.0016434356 -0.09728364 0.08978761 -0.05959795
000110 83 40 0a 3e 5f b1 34 bd 75 da e4 3b e5 4e 6a bd
       0.13501172 -0.044114467 0.00698405 -0.057204146
000120 e8 fd 45 3d 24 18 18 be 7a 86 ad bd 31 17 23 bd
       0.048337847 -0.14852959 -0.08472915 -0.03981704
000130 3b ac 18 3c 5b c3 00 be a4 e1 45 3e 28 6c 2a be
       0.009318407 -0.12574522 0.19324356 -0.16642821
000140 e2 99 22 3e 93 b7 15 3d 64 28 16 be 21 53 c5 bd
       0.15879014 0.036552023 -0.14663845 -0.09634996
000150 a5 ea 20 3e f6 16 02 3e 87 93 02 3e ab bf d3 3d
       0.1571451 0.12704071 0.1275159 0.10339292
000160 77 3a 00 be aa 6a 0c be 11 a0 1e be 6d fa df 3d
       -0.12522303 -0.13712564 -0.15490748 0.10936437
000170 f0 79 ab 3d ad b8 0f 3e 88 96 27 be c2 43 2d 3d
       0.08372867 0.14035292 -0.16366017 0.042300947
000180 ad f8 09 3e 79 0f c2 bc 92 af bc 3c 59 41 13 be
       0.13473769 -0.023689019 0.023032937 -0.14380397
000190 f3 bd ce bd 68 ae 27 be 33 df c7 bd a8 fb 06 bc
       -0.10094824 -0.16375124 -0.09759369 -0.00823871
0001a0 a3 d1 9a bd 4b a0 c8 bd 0e 17 04 be 23 01 06 3d
       -0.07559516 -0.097961985 -0.1289942 0.032715928
0001b0 2c 56 60 3d 72 29 3e bd 73 44 48 be 43 19 36 3e
       0.05476968 -0.046426244 -0.19557361 0.17783074
0001c0 6c 96 70 3a 86 2a d2 bd 91 ac 9d 3b 27 08 df 3d
       0.0009177688 -0.10262017 0.0048118313 0.10890227
0001d0 43 94 39 be fb 88 e4 bb 98 27 9b 3d 1c c6 ab 3d
       -0.18122964 -0.006974337 0.07575911 0.08387396
0001e0 94 15 fd 3d 29 55 ce bd 7a a0 e3 bd f7 e8 df 3c
       0.12357631 -0.10074837 -0.11114593 0.027332766
0001f0 23 93 49 be c8 f5 6b 3d 6f 84 ac bd 91 e8 b1 bc
       -0.19685034 0.057607442 -0.08423697 -0.021717342
000200 da f0 38 be 5e 36 b8 bd 2e 81 e5 bd 5c 64 c9 bd
       -0.18060628 -0.08994745 -0.1120628 -0.09833595
000210 f0 f4 23 bd 1a ca ad bc 03 cd fa bd 85 6c 0f 3e
       -0.040028512 -0.021214534 -0.12246134 0.1400624
000220 d3 41 41 3d 85 d6 1c be 3b 18 16 be a2 f3 91 3d
       0.047181915 -0.15316208 -0.1465768 0.071265474
000230 68 b6 c8 3c 57 ef 22 bc e8 37 ea 3c fb 9e 2b 3c
       0.02450104 -0.009944758 0.028591111 0.010474916
000240 17 39 12 be f0 64 d1 bc f1 78 26 3e c3 66 c4 3c
       -0.1427959 -0.025560826 0.16257073 0.023974782
000250 42 c7 b2 bd cb 34 16 3e 50 92 1d be 36 12 2d 3e
       -0.08729412 0.14668576 -0.15387845 0.16901478
000260 e9 ae 14 be fa 07 bd bd 23 26 19 3d d7 a3 49 bd
       -0.14519848 -0.09230037 0.037389886 -0.049228515
000270 f4 a0 fc 3d 77 cb fb bd f8 88 30 3d 85 74 6f bd
       0.12335387 -0.12294667 0.043099374 -0.05846073
000280 4d 0b 0b be 45 20 2e be ba e3 cd bd 99 7e f9 3d
       -0.1357853 -0.17004497 -0.10053201 0.1218235
000290 e7 33 9c bb 13 91 ee 3d c1 7b 02 be 6d 54 24 3e
       -0.0047669294 0.116487645 -0.12742521 0.16047831
0002a0 7d 37 29 be c2 03 c5 bd 2b 23 f9 3d f7 fe 15 3e
       -0.16525073 -0.09619857 0.12164911 0.14648043
0002b0 92 0d 73 bd 97 33 9d 3d fa 54 f3 bd 6d c7 00 3e
       -0.059339114 0.076758556 -0.11881442 0.12576075
0002c0 59 2a f3 bb b7 be 3b be ea 08 25 be 02 e5 29 be
       -0.0074208197 -0.1833447 -0.16116682 -0.16591266
0002d0 f6 ad 02 3e 1f 14 0c be 80 9d 84 bd 4d 45 3f be
       0.12761673 -0.1367955 -0.06475353 -0.1867878
0002e0 e0 b1 b0 bd 7a 91 0b 3e 32 09 0e 3e 7b 10 a7 3d
       -0.08627677 0.13629714 0.13870695 0.0815744
0002f0 a5 02 62 bd 26 ed 6c 3c 42 16 a5 bd 39 13 28 3c
       -0.055178303 0.0144608375 -0.08060886 0.010258489
000300 6c 4b 05 be 57 f0 36 3e 98 f6 0e 3d fb ac 3b 3e
       -0.13017052 0.1786512 0.03490314 0.18327706
000310 98 20 1d be 29 5c 36 be d9 34 fd 3d 1c 7e 32 3e
       -0.15344465 -0.17808594 0.123635955 0.1743092
000320 62 17 ec 3c 71 f9 23 be 96 6c 90 bd 97 94 8e bd
       0.028819744 -0.16013123 -0.07051961 -0.06961935
000330 d5 64 28 be 18 33 14 be f3 40 ed bd b1 01 33 be
       -0.16444714 -0.14472616 -0.11584654 -0.17481114
000340 c9 6d 0c be 0e 8d 41 be eb 4d 30 be 8c c5 c2 3d
       -0.13713755 -0.18901464 -0.17217223 0.09510335
000350 8b 5c 1f be a0 28 e9 bd 70 90 2a be 8f de bc 3d
       -0.15562646 -0.11384702 -0.16656661 0.09222137
000360 9c f4 2e 3e b3 7f 05 be bf 54 0b 3e 97 6e 0e be
       0.17085499 -0.13036995 0.13606547 -0.13909374
000370 43 a8 a8 bd 5e 34 1a 3a 0f 40 f0 bd 6d 67 40 bd
       -0.082352184 0.0005882437 -0.11730968 -0.046973635
000380 d5 43 b8 3d 46 40 18 bd ae d3 13 be dc fe e2 3b
       0.08997313 -0.03717067 -0.14436218 0.0069273543
000390 b2 a4 98 bd dc 25 d9 3a ff fe b3 3d e3 26 3a be
       -0.07453288 0.0016567069 0.08788871 -0.18178897
0003a0 09 f7 18 3e f3 46 38 be 6f 01 1c bd 9c e8 32 3d
       0.14937986 -0.17995815 -0.038087305 0.043678865
0003b0 0d b9 08 3c 84 79 e1 3d 47 cf 64 bd d5 ac 38 3d
       0.008344901 0.110095054 -0.055861738 0.0450867
0003c0 4e 1f 0b 3e af 42 09 be 14 13 4d 3d d0 5a 02 3e
       0.1358616 -0.13404344 0.050067022 0.12729955
0003d0 16 e6 94 bd 8a 85 15 be 65 a4 3e 3e cc 91 27 bd
       -0.07270448 -0.14601722 0.18617399 -0.040910527
0003e0 ca 0e 25 3b ae 8b 4d bd be 32 0b be 2c c9 c5 bc
       0.0025185817 -0.050182037 -0.13593575 -0.024143778
0003f0 05 46 22 be 3a e4 0f 3e ef 65 ee bd 84 ab bf bd
       -0.15847023 0.14051905 -0.11640536 -0.09358886

conv_block_1.0.bias f4 [10]
000000 54 67 5b 3c 9b cf 74 bb 1c ab 0a be 3f a9 8f 3d
       0.013391335 -0.0037355188 -0.13541836 0.07014703
000010 9d 84 44 be da 15 f3 3d 21 ad 1b 3e 6a a9 f1 bd
       -0.19191213 0.11869402 0.15202762 -0.11799891
000020 90 0f 28 3e c9 a7 10 3e
       0.16412187 0.14126505

conv_block_1.2.weight f4 [10, 10, 3, 3]
000000 b4 f5 a8 bd 4e 74 66 3d 83 92 a0 bc 90 80 ca 3c
       -0.08249989 0.05626326 -0.019601112 0.024719507
000010 a8 3a a0 bd 07 87 8e bd 13 80 92 3d f3 e8 8a 3c
       -0.07823688 -0.06959348 0.071533345 0.016956782
000020 d5 5f 03 be f1 20 c5 3d 54 da 83 3d fc d2 4e 3d
       -0.12829526 0.09625424 0.06438127 0.05049418
000030 ac c9 04 3c 6a 53 20 bd 69 9c 66 3d 7c 62 d1 3d
       0.008104723 -0.03914205 0.056301508 0.102238625
000040 0b 03 55 3d c9 49 8e bd 35 bf 9d 3d 53 07 94 3d
       0.052004855 -0.06947667 0.077024855 0.072279595
000050 6b 67 92 bd a8 66 a7 bd a3 59 41 bd 66 c2 76 bd
       -0.07148632 -0.08173877 -0.047204625 -0.060243987
000060 c0 47 1d bc 0e a9 8e 3c 26 0f b2 bd 51 40 5e 3d
       -0.009599626 0.017414596 -0.086942956 0.054260556
000070 37 a1 ed bd 98 79 cb bd 1f 67 c4 bd 39 da 80 bd
       -0.11603015 -0.099353015 -0.09589981 -0.06291623
000080 9b 28 47 3d fd 65 b4 3d 68 2a d2 3c 07 34 12 bd
       0.04862271 0.08808515 0.025654987 -0.03569415
000090 ff 16 90 3d 7a ce 4a 3c 9a 18 ab 3c c0 8e 16 3d
       0.07035636 0.012378329 0.020885754 0.03675723
0000a0 2b 28 d9 3d d7 29 7d 3d c1 b7 b1 3d 88 82 94 3c
       0.106033646 0.06180748 0.086776264 0.018128648
0000b0 0a 8f a6 bd 51 d9 27 bd e7 3f ae bc 8b 56 03 bd
       -0.08132751 -0.040978733 -0.021270705 -0.032064956
0000c0 b7 69 ad bd b2 c6 f1 ba d6 2f 9b 3d be 7a 98 bd
       -0.08467429 -0.0018446057 0.07577483 -0.07445286
0000d0 36 9d 86 bc f8 05 13 bd 09 1b b2 bb 3a f1 b0 bd
       -0.016432386 -0.035894364 -0.0054353517 -0.0863976
0000e0 25 ad 6e bd c3 50 8b 3c 8c c1 19 bd 36 eb 57 3d
       -0.058270592 0.017006284 -0.037538096 0.05271455
0000f0 9e 1d c0 bd 20 48 41 3d 71 58 ec bd ef 55 53 bd
       -0.09380649 0.047187924 -0.11540306 -0.051595625
000100 63 a8 ba bc 62 1d 16 bd c0 ec 95 bd 1f 97 80 bd
       -0.022785371 -0.036649115 -0.07320547 -0.06278824
000110 01 85 9b bd 43 3e a7 3c 78 2e 39 3d 02 c4 52 bd
       -0.07593728 0.02041543 0.04521033 -0.05145646
000120 da a5 80 bd 69 7c 7c 3c 55 d5 58 bd 43 22 40 3d
       -0.06281634 0.015410521 -0.052937824 0.046907675
000130 2a 65 fe 3b b4 12 28 bd 2d 07 85 bd 6b c6 dc 3b
       0.0077635245 -0.04103346 -0.06495509 0.0067375205
000140 3d 6b 17 bd 40 e0 a6 3d 47 26 79 3d 65 81 81 bd
       -0.036967505 0.08148241 0.06082752 -0.06323508
000150 d4 b4 90 bd 59 6a aa bd fa 24 da bb a8 bc 7b bc
       -0.0706574 -0.083210655 -0.00665724 -0.015364803
000160 ac b3 9c 3d ea d7 07 3c c3 86 03 bd 77 52 41 bd
       0.07651457 0.008291224 -0.03211094 -0.047197785
000170 29 25 f7 3c c2 4d 9d 3d ed 5d ab bc e6 11 ce bd
       0.030169087 0.07680847 -0.02091881 -0.100620076
000180 e3 56 0f bd e6 f6 88 bc f4 cf 7c bd 5e f0 28 3c
       -0.03499497 -0.016719293 -0.061721757 0.010311214
000190 b9 f9 b9 3c 75 50 cb bb e9 38 98 bd 7f cb af bd
       0.022702085 -0.0062046596 -0.0743273 -0.08583736
0001a0 7e e2 07 3c c4 8d 84 bc a0 c7 ad 3b db a2 b4 bd
       0.008293746 -0.01618088 0.005303338 -0.08820125
0001b0 e5 05 9c 3c 31 f7 94 3d 27 2e b6 bd 09 8c cb 3d
       0.01904578 0.072737105 -0.088955216 0.09938819
0001c0 0d 74 25 bd e6 fd 33 3b 44 39 d4 bd 5b db 9a 3d
       -0.040393878 0.0027464568 -0.10362485 0.0756137
0001d0 c8 41 98 bd 12 6c a9 bd ae f7 eb bd bd df 10 3d
       -0.07434422 -0.08272566 -0.115218505 0.035369623
0001e0 6b 4f 46 bc fe 30 bb bd 93 8e 85 3d bf fe 58 3d
       -0.012103896 -0.09140204 0.065213345 0.05297732
0001f0 80 fd 2a bd 03 fe d8 bd e9 df 06 bc c3 05 81 3d
       -0.041745663 -0.10595324 -0.008232095 0.06299927
000200 88 6b 92 b9 07 fa 78 37 30 c6 a6 bd 8d 4f a1 bb
       -0.00027927407 1.4840166e-05 -0.0814327 -0.0049228133
000210 24 dc 23 bc 4e 0e bc 3d 8c 7e 0f 3c 6b 86 d3 bd
       -0.010001216 0.09182416 0.0087581985 -0.103283726
000220 f5 c0 48 bd 70 80 2a bd 0b b4 25 bd b5 61 ac bd
       -0.049012143 -0.041626394 -0.040454905 -0.08417074
000230 51 bc a8 3c 70 33 bd 3d f1 c8 a7 bd bc 74 a6 3d
       0.020597609 0.092383265 -0.081926234 0.08127734
000240 84 1a 9e bc 87 71 77 3c 8b 30 eb bc 05 90 f2 bc
       -0.019299753 0.015102751 -0.02870967 -0.02960969
000250 4b ba a3 bd 50 42 82 bd 38 fc 66 bd 6e cc 15 3d
       -0.07994517 -0.06360304 -0.05639288 0.036571912
000260 0e d8 23 bd d6 b7 8e bd e0 ed b4 3d d2 9c ac bd
       -0.040000968 -0.06968658 0.088344336 -0.084283486
000270 58 92 ac 3d 16 12 86 bd 69 3e fd bc 73 3c 8f bd
       0.0842635 -0.06546418 -0.030913549 -0.06993952
000280 a4 35 af 3b 71 cb c1 bd d7 2d 28 bc 68 5c 4a 3d
       0.0053469706 -0.094626315 -0.010264835 0.04940453
000290 c0 58 92 3d 17 13 71 3d 6f b3 d7 3d 26 c8 ba bd
       0.07145834 0.058856096 0.10532271 -0.091202065
0002a0 12 30 1b bc 78 74 67 bc ef 5d 94 bd bd 8d d3 3d
       -0.00947191 -0.014126889 -0.07244479 0.10329769
0002b0 d0 38 65 bb 3c 5e 4e 3d 51 98 bf 3d 22 20 6c 3d
       -0.003497649 0.050382838 0.09355224 0.05764783
0002c0 a0 f7 dd 3d f3 b3 10 bc 48 bb a5 bc f5 18 87 3c
       0.10838246 -0.008831966 -0.020230904 0.016491393
0002d0 67 23 a0 3d 98 48 23 3a 8e 4c ba 3b 6c d8 05 3d
       0.078192525 0.0006228774 0.0056853956 0.0326771
0002e0 6b 75 a2 bd 02 c1 b8 bc 7e 63 32 3d 83 32 6b bd
       -0.07932552 -0.02255297 0.043551914 -0.05742122
0002f0 05 52 e8 3c 2c 26 e6 3b a1 8a 9f 3d e6 fd 99 bb
       0.028359422 0.0070235934 0.07790113 -0.0046994565
000300 a0 fe 85 3a f8 34 62 bd 68 b8 3a 3d a7 a1 d1 3d
       0.0010222979 -0.055226296 0.04558602 0.10235911
000310 95 21 57 3d d3 e6 20 bd 40 f0 f5 bb e5 0f 54 bd
       0.05252226 -0.03928263 -0.0075054467 -0.05177297
000320 52 d5 f0 3d 1d 4d 2e bd 08 4e 94 3d 0e d3 0b bd
       0.117594376 -0.04255401 0.07241446 -0.034136824
000330 95 1e 8e 3b b4 01 8f 3d 7c 38 6a bd ed ca 6d bd
       0.0043371418 0.06982747 -0.057182774 -0.058054853
000340 be b4 e3 bd 9f c3 42 3d c9 c4 a6 bd 03 81 c3 3d
       -0.11118458 0.04754984 -0.081430025 0.095460914
000350 17 7b 51 3d 78 3b 8a bd c4 04 80 3d b8 76 c1 bd
       0.05114278 -0.06749624 0.06250909 -0.09446472
000360 7a ac 4b 3b 53 ca c4 bd ef 64 30 bd ec 9b 57 bc
       0.0031078146 -0.09608903 -0.043065008 -0.013159733
000370 5c ee a0 3d 8c d4 71 3d 07 e7 ac bd c5 b8 89 bd
       0.078579634 0.05904059 -0.084425025 -0.06724695
000380 ae ff 85 3d 7a f1 17 bc f7 8a 56 bd 5a bd 1a bc
       0.06542908 -0.009273881 -0.05237862 -0.009444559
000390 c1 a5 0e bc 48 9e 5b bb f0 b6 21 bd 9f 8e de bd
       -0.008706511 -0.003351109 -0.039481103 -0.108670466
0003a0 15 75 a9 bd 40 fb 82 3d c0 f3 60 bd fe 29 7f bc
       -0.08274285 0.063955784 -0.054919958 -0.015573977
0003b0 69 66 f0 3c 3e 75 18 3d db 52 77 bd 32 ef 27 3d
       0.029345708 0.037221186 -0.06038175 0.0409996
0003c0 b0 3b 0d 3d de 97 45 bd 2d 01 a1 bd 78 7f 2c bd
       0.03448075 -0.048240535 -0.078615524 -0.04211375
0003d0 2e 87 e5 3c 1e 05 aa bc 0f fb 97 bd 8c 28 0d bd
       0.02801856 -0.020754393 -0.074209325 -0.034462497
0003e0 e6 61 6f bd 77 b4 28 3d 54 ad 3f bd f3 78 cf bd
       -0.058442973 0.04118773 -0.046796158 -0.10130491
0003f0 f8 e9 af bc 8d c3 f0 bd 90 94 eb bd 19 83 32 bd
       -0.02147387 -0.11756048 -0.115029454 -0.043582056

conv_block_1.2.bias f4 [10]
000000 a7 ab 84 bc d4 ea 1b bb 5e 50 31 3d 42 43 b9 3d
       -0.016195131 -0.0023791092 0.043289535 0.090460315
000010 90 9e b4 bd 7b 9e 4a 3d c5 26 8e bd 6a 46 28 bb
       -0.08819306 0.049467545 -0.069409885 -0.0025676736
000020 64 1d d8 3d 8e 6c 71 3d
       0.10552481 0.058941416

conv_block_2.0.weight f4 [10, 10, 3, 3]
000000 75 20 9e 3d 2c 8e 31 3d 1d 01 07 3d 74 f3 17 bd
       0.077210344 0.043348476 0.032960046 -0.03709741
000010 f7 1f b8 bd 3b 59 c9 bb c7 07 11 bd 70 19 a0 3c
       -0.08990472 -0.0061446703 -0.035407808 0.01954338
000020 a0 2f b1 bd 48 ca 4b bd 5c c5 af 3d b2 89 28 bc
       -0.08651662 -0.049753457 0.08582565 -0.010286735
000030 83 69 f2 bc 32 e6 79 3c 23 a9 00 bd 9f 4d 92 3d
       -0.029591328 0.015252637 -0.0314113 0.07143711
000040 75 90 fa 3c e5 fd 48 bc 21 2d ce bd 65 e5 52 3d
       0.03058646 -0.012267564 -0.100672014 0.0514883
000050 5c 23 9d 3d af 5e d4 3d f0 2c a4 3c 6d df 58 bd
       0.0767276 0.10369622 0.02004096 -0.05294745
000060 e9 93 25 3c 18 22 04 3d c6 f5 72 bd a1 c4 2f 3c
       0.010106065 0.032259077 -0.05931642 0.010728032
000070 cf c4 a1 3d 5b 93 7f 3d ac 3e a8 3c 18 32 33 bd
       0.078988664 0.06239639 0.020537697 -0.043748945
000080 ae 26 04 bd 48 e4 97 bd a9 cb 3c bd a0 ab d6 bd
       -0.03226345 -0.07416588 -0.046092663 -0.104819536
000090 b3 8b de bb be 05 3c 3d e4 3f d4 bc 72 97 55 bd
       -0.006791556 0.045903914 -0.025909372 -0.052146383
0000a0 c5 66 1e bd 44 ef 2f 3a 3a fc f5 bc 9b 62 83 bd
       -0.038672227 0.00067113736 -0.030027498 -0.06415292
0000b0 c7 2b 3f bc 04 bb 46 bd 8a bc 85 bd 99 f9 6c 3d
       -0.011668152 -0.048518196 -0.065301016 0.057855222
0000c0 e1 cd 81 bd 8b d7 a6 3d a5 af 28 bd 59 18 c4 3d
       -0.063380964 0.0814658 -0.041183133 0.095749564
0000d0 79 21 41 3d 44 43 d0 bc 32 80 7e bb 86 79 17 bd
       0.047151063 -0.0254227 -0.0038833735 -0.03698113
0000e0 a8 d1 76 3d 67 db 5f bd 1b 5a a5 3d 5d ab cf 3d
       0.060258538 -0.054652598 0.08073827 0.10140107
0000f0 81 ce 3d 3b 75 7c 21 3c 75 9b a9 bd 9e f3 8c 3d
       0.0028962197 0.009856333 -0.08281604 0.06882404
000100 54 bf b5 3c d2 1f 94 3d bb df 55 bd 87 e5 32 bc
       0.022185959 0.07232632 -0.05221532 -0.010918981
000110 fb 55 b3 bd db 72 74 bd 01 46 b5 bc ea 65 90 3d
       -0.08756634 -0.059679847 -0.022128107 0.070506886
000120 96 db 27 bd 64 20 b6 bd 67 75 6b 3d ae 43 ff bc
       -0.040980898 -0.08892897 0.05748501 -0.031160202
000130 cf 42 8b bc 4f 85 9a bd 1f 4a 0c 3d d8 ec a9 3d
       -0.01699963 -0.07544958 0.034250375 0.082971275
000140 59 c7 b6 3d 58 4c 14 bd 61 3a 3d 3d 82 ec 40 bc
       0.08924741 -0.03620562 0.046198253 -0.011775138
000150 70 6e 7a 3c c4 9a b8 bd f3 19 60 bd 85 cc 54 3d
       0.015285119 -0.09013894 -0.054712247 0.051952858
000160 99 b6 48 3d 56 c9 68 3a 87 de 23 bd 77 27 90 3d
       0.049002264 0.0008880099 -0.04000714 0.07038777
000170 2d cb a5 bd 9c 1c 85 bd 80 97 bc 3d a1 2e b2 3d
       -0.08095393 -0.064995974 0.09208584 0.087003
000180 e1 e8 f4 3d a0 34 ca bb d2 86 34 bd a2 16 10 3d
       0.119584806 -0.006170824 -0.044073887 0.035177834
000190 0c 45 88 3d 30 5a 56 bd 22 52 c6 3d 70 a3 76 bd
       0.06653795 -0.052332103 0.09683634 -0.06021446
0001a0 44 94 ac bd 67 c1 1e bd 0c ec a3 3d 6f a6 83 3d
       -0.08426717 -0.03875866 0.08004007 0.06428229
0001b0 51 81 a7 3d 67 af ba 3d 2c cc 8c 3c bd 44 9f 3d
       0.08178962 0.091154866 0.0171872 0.07776783
0001c0 db 49 fc 3a 0a cd a5 3d 89 ab d6 3d 19 60 f3 3c
       0.0019248085 0.08095749 0.104819365 0.029708909
0001d0 ca b9 27 3c cd c7 3c 3d ae 9d a6 bc 83 70 0a bc
       0.010237167 0.046088982 -0.02033886 -0.008449676
0001e0 f3 f9 2b 3d 8f ee 5e bd 90 f6 5d 3d 20 1e 21 bc
       0.041986417 -0.054426726 0.05419022 -0.0098338425
0001f0 46 cb a7 bd 36 15 cc 3d 5a c8 bc bd 42 0f 88 3d
       -0.08193068 0.09964983 -0.092179015 0.06643535
000200 ae 1d 97 bd 57 e0 81 bd 8b 6a 87 bd e1 67 97 bc
       -0.07378708 -0.063416176 -0.06612118 -0.01848215
000210 dd 71 7c bd 18 3e d1 bd 43 ab b4 3c 2b 2a a4 3d
       -0.061632026 -0.102169216 0.02205432 0.080158554
000220 b7 80 84 bb 48 fa ce 3d 19 37 3f bc 3a 0a 87 bd
       -0.0040436643 0.10106331 -0.011670851 -0.065937474
000230 2b fa c3 3d b4 b4 8f bc fa 92 3d 3d e6 69 bd bc
       0.095692 -0.01754222 0.046282746 -0.023121785
000240 9e b9 32 3d 98 f4 a2 bd c0 ef 45 bd e5 6e 9c bc
       0.04363405 -0.07956809 -0.048324347 -0.019095847
000250 55 de 0e bd c7 3f 87 3d 8c ba 45 3d 49 e4 74 bd
       -0.03488 0.066039614 0.048273608 -0.059788022
000260 70 7b 10 3d 59 6e a3 bd 77 52 85 3d a2 d8 30 3d
       0.03527397 -0.079800315 0.065098695 0.043175347
000270 17 95 15 bd 42 8c 67 bd 59 b0 b2 3c 87 1c fd 3c
       -0.036519136 -0.056530245 0.021812605 0.030897392
000280 62 1e 6f bc 48 48 97 3d af 32 83 bd 91 fc 39 bd
       -0.014594646 0.073868334 -0.064061515 -0.04540688
000290 55 fe 99 bd 00 fd cb 3c 8d ad 08 bd 62 f4 ff bd
       -0.07519213 0.024900913 -0.033368636 -0.12497784
0002a0 2e 0a be bd 06 2d f6 3b ca ac 39 bd eb ef 34 3c
       -0.09279285 0.0075126914 -0.0453308 0.011043529
0002b0 0f 11 7f 3d a3 4c 14 bd 2f 3d e4 bb 25 f5 63 3d
       0.062272128 -0.0362059 -0.0069653015 0.05565371
0002c0 da 6d c0 3d ad a4 27 bb 91 7f 16 3b 3e 88 17 3d
       0.093959525 -0.0025580332 0.002296422 0.036995165
0002d0 95 1c 6b 3d 6a 79 82 3d 04 5c 4f bd 7e ad b5 bd
       0.057400305 0.06370814 -0.050624862 -0.08870982
0002e0 87 17 3c 3d 1d 57 14 bd d5 4e 98 bd a7 0d 76 3d
       0.045920875 -0.03621589 -0.07436911 0.060071614
0002f0 d2 a4 85 3b 61 80 a4 bc 97 ee 81 3d 28 22 77 bc
       0.004078486 -0.020080747 0.063443355 -0.015083827
000300 ac fb a0 3c 08 c2 a8 3c 6f fd c1 3d 7d b8 4f 3d
       0.019651257 0.020600334 0.09472167 0.05071305
000310 d0 f3 ea bd 92 49 9b 3d ba e5 c1 3d dc 19 79 3c
       -0.11472285 0.07582392 0.09467645 0.015203919
000320 7c ba 4a bb ef 02 92 bb 80 36 bc bc 61 4b b4 bd
       -0.0030933907 -0.004455916 -0.022975206 -0.0880344
000330 8e ec f4 3b 80 62 29 3d 69 77 08 bd ee d5 8b 3d
       0.0074744886 0.041353703 -0.033317003 0.06827913
000340 8c 91 c4 3d 51 a0 32 3d 21 d1 14 bd 92 15 03 bd
       0.09598073 0.04360992 -0.036332253 -0.032002993
000350 0b de 27 3c c2 2d fc 3b 1a c0 f4 3b 3e 94 8b bd
       0.01024581 0.0076958844 0.0074691894 -0.06815384
000360 d9 c1 17 3c b3 14 d2 bc 07 2e a9 3d 72 1c f5 3c
       0.0092625255 -0.025644636 0.08260732 0.02992079
000370 85 79 39 3d ca 37 2c bc 99 1d 28 bc da 73 bf 3c
       0.045281906 -0.010511348 -0.010260963 0.023370672
000380 fe 38 40 3c 22 9f 97 3d 41 fe c1 bb e8 f8 93 3d
       0.011732338 0.07403399 -0.005920202 0.072252095
000390 42 b0 39 3c f3 67 90 bd d4 f0 89 3d 49 fd 3e 3d
       0.011333527 -0.07051077 0.067353874 0.04662827
0003a0 5b 44 86 bd 59 4b d1 3c a8 80 5f bd 01 6f dd 3c
       -0.065560065 0.025548624 -0.054566056 0.02703047
0003b0 c3 3d e2 bb e3 eb de bd ef 62 e3 3b ea 1d d5 3b
       -0.006904335 -0.108848356 0.006939284 0.00650381
0003c0 9e d9 95 3c c6 39 c3 bc 1f f0 86 3d 8b d3 8c bd
       0.018292245 -0.02383126 0.06588768 -0.06876286
0003d0 ee 66 24 3d 43 44 f3 bc e7 65 b7 3d c6 fc d2 bc
       0.040137224 -0.029695636 0.08954983 -0.025755297
0003e0 85 49 58 3d 25 1f 9c 3d a0 b5 75 bb 97 79 d8 3d
       0.05280449 0.07623128 -0.003749229 0.105700664
0003f0 fe 46 27 bc a2 26 c9 3c 59 a9 0f 3d ca 7b f3 3d
       -0.010209797 0.024554554 0.035073612 0.11888845

conv_block_2.0.bias f4 [10]
000000 96 ab a4 bd 83 b2 13 3b 73 46 10 3d 1b 9c 66 bd
       -0.0804054 0.0022536821 0.035223436 -0.056301218
000010 2c 6f 5c bd 5c c0 d6 3d 24 1f da bc 1a 65 74 3d
       -0.05381696 0.104859084 -0.026626177 0.05966673
000020 2b 46 a9 3d a5 61 8a 3d
       0.082653366 0.067569055

conv_block_2.2.weight f4 [10, 10, 3, 3]
000000 9a 07 72 3d fd 89 95 bd 0d 5b 9a 3d c5 fe 59 bd
       0.05908928 -0.0730171 0.07536898 -0.053221483
000010 e6 5d 25 bd 47 61 96 bd 80 78 0a 3d 5b 6b be 3d
       -0.04037275 -0.07342773 0.033806324 0.0929782
000020 ce b8 c0 bb 94 ec 5c 3d be 54 df 3d 47 83 b3 bc
       -0.0058814054 0.053936556 0.10904835 -0.021913184
000030 70 d2 34 3d a3 0b b2 bd 8b 0f c8 3d a6 cd 9d bd
       0.044146 -0.08693626 0.097685896 -0.0770524
000040 ce ce 8e bc 00 35 6f 3d 21 09 59 bd 0d fa 8f 3d
       -0.017432597 0.058400154 -0.05298722 0.07030115
000050 b2 cf c0 bd f2 53 6f 3b 63 19 83 3d 53 11 99 3d
       -0.09414615 0.0036518541 0.064013265 0.074740075
000060 0b ce a2 bd e0 65 9b bd dc 40 76 3d 9a 23 89 bd
       -0.07949456 -0.075877905 0.06012045 -0.066962436
000070 4c 03 81 bd 1f 2d d9 3d 97 b4 ea bb 75 d8 43 3d
       -0.06299457 0.10604309 -0.0071626413 0.04781385
000080 ef c1 e3 3d 14 ea c8 3d ad 98 37 3c 92 15 bf bd
       0.11120974 0.09810272 0.011205834 -0.09330286
000090 2b 9c 83 3d 63 d9 a4 bd d3 ae 4f bd 3b 68 89 3d
       0.06426271 -0.08049276 -0.050703835 0.067093335
0000a0 36 10 a8 3d 9a f2 ac 3d 36 0c 23 bd 86 bb d4 3d
       0.08206217 0.0844471 -0.039806567 0.1038733
0000b0 f9 7f c6 3d a7 1e 4a bd 2f 62 74 3d 1f 88 32 bd
       0.096923776 -0.04934564 0.059663948 -0.043586846
0000c0 38 8b 98 3c 14 09 36 3d a2 da bf bd 74 a8 63 bc
       0.018621072 0.04444225 -0.09367873 -0.013895143
0000d0 48 a5 44 bd 22 a7 67 bd a2 19 85 3d 60 e3 92 3d
       -0.048009187 -0.056555875 0.0649903 0.071722746
0000e0 c3 de a6 3d 2d f6 a6 3c 12 3a 73 bd 34 ea 87 3d
       0.08147957 0.020381058 -0.059381552 0.066364676
0000f0 53 6e 93 3d d6 ab a9 bc fc 0e bf 3d 78 cb ba 3c
       0.07198777 -0.02071182 0.0932903 0.0228021
000100 8a 2b 18 3d ad df 81 3d ad d6 4d 3d e0 5b 5c bb
       0.037150897 0.06341491 0.05025356 -0.0033624098
000110 66 b1 c1 3c 9a f4 6d 3d ee 96 86 3c ac 7d d4 bd
       0.02364416 0.0580946 0.01642939 -0.103755325
000120 1b c0 79 3d d4 b1 9c bd 0a bb 95 3d 3f 02 6c 3c
       0.06097422 -0.076511055 0.073110655 0.014404832
000130 33 5c 8a bd 80 0f 5d 3b c8 2e 16 3d d0 7c 4a bb
       -0.06755867 0.0033731163 0.036665708 -0.0030897148
000140 b3 af 2e 3c 43 7b 34 3d 7b b8 c8 bd 1e b7 a1 3d
       0.010662007 0.044062864 -0.09800812 0.07896255
000150 4e 2f d2 ba 0c 8a 65 3d 38 46 fa 3c d1 0e ab 3c
       -0.0016035826 0.056039855 0.030551061 0.020881088
000160 63 82 cd 3d 81 c6 7e 3d 5e ae 87 3d c7 5a fe bb
       0.10034635 0.062201027 0.06625055 -0.0077622863
000170 00 0a ce 3d 71 d4 69 bb 00 4c 70 bc 90 f5 ef 3c
       0.10060501 -0.0035679603 -0.014666557 0.029291898
000180 ad b2 b2 bd 92 d0 5f 3d 3a a8 d0 bd e0 f9 de 3c
       -0.08725486 0.054642268 -0.10188337 0.027218759
000190 36 38 9e 3d b4 b3 e0 3d 22 f1 0b 3d b9 1a 32 3d
       0.07725565 0.10971776 0.03416551 0.043482516
0001a0 8e 12 05 3d ee d3 2f 3d ed 81 99 3d 75 9b 35 bb
       0.0324884 0.04292672 0.074954845 -0.0027711068
0001b0 0c a4 73 bd 58 b9 02 3d 08 1f 6d bd e2 ce 76 3d
       -0.05948262 0.03191504 -0.05789092 0.060255893
0001c0 13 6e 84 bd e5 40 cf 3d 9e c8 aa bd 6b 5d 0e 3b
       -0.064663075 0.101197995 -0.08339046 0.0021723162
0001d0 b6 2a 0f 3d 87 b8 c3 3b 93 b5 d0 3c f3 45 92 3d
       0.03495284 0.005972925 0.025477206 0.07142248
0001e0 a1 73 ba bd 71 e4 9f bd 1e f1 6d 3d 96 33 15 bc
       -0.09104086 -0.078072436 0.058091275 -0.009106537
0001f0 64 f7 83 3d 9b fd 5c 3d e6 e0 90 3d ea 91 a4 3b
       0.064436704 0.053952795 0.07074146 0.005022277
000200 eb 68 df 3d 8c 03 7d bd 89 78 37 3b 42 14 dc 3d
       0.109086834 -0.06177096 0.0027995429 0.10746051
000210 22 27 01 3a 34 b6 e8 bc 75 00 6a bd 34 fe 92 3d
       0.0004926791 -0.028407194 -0.057129342 0.07177392
000220 97 ae e7 bc a2 49 8d 3d 06 43 5c bd 02 fc 56 3d
       -0.028281493 0.0689881 -0.053774856 0.052486427
000230 52 2f c2 3c 46 63 c8 bd ad 34 4d bc c6 a4 89 3d
       0.023704205 -0.0978456 -0.012524766 0.06720881
000240 46 d7 8f bb b0 ef b4 bd ab 4d 72 bc 4a 32 b4 bd
       -0.0043896763 -0.08834779 -0.014789025 -0.087986544
000250 ee 76 b3 3c 5d e1 35 bd b4 6a 98 bc 19 48 f1 3b
       0.021907296 -0.044404376 -0.018605568 0.007363331
000260 04 b9 0d bd 94 bf f1 3d 3c 79 2e 3d 51 40 c9 ba
       -0.034600273 0.11804119 0.042596087 -0.0015354251
000270 ca 17 90 bd 0f f2 ee 3d 63 7a 86 ba dc 97 ab 3c
       -0.070357874 0.11667263 -0.0010259863 0.020946436
000280 5d 0a 22 bd 4b 3d 02 3d ae 26 bb bd 45 db a7 3d
       -0.039560664 0.031796735 -0.09138237 0.08196119
000290 39 e0 c4 bd 9f 4c c1 3d 5f 28 64 bd 09 c7 2a bb
       -0.096130796 0.094384424 -0.055702563 -0.0026058576
0002a0 dd 3f f3 3c 47 4b 30 bd 55 44 bc bd 00 f1 0b 3c
       0.029693538 -0.04304054 -0.09192721 0.008541346
0002b0 4b b6 bf 3d fa 1f 32 bd 7d cc e0 3c da 40 ad bd
       0.093609415 -0.043487526 0.027441258 -0.08459635
0002c0 69 57 99 3d 4f a7 d6 bc c7 f9 96 3d 5a 86 67 3c
       0.07487375 -0.026202826 0.0737186 0.014131153
0002d0 91 99 1a bd 12 1e 4b bd 2c a6 88 3b 3b 26 09 3d
       -0.03774411 -0.049589224 0.0041702 0.033483725
0002e0 d2 2a 57 bc 76 3c 5a 3d 87 fa 77 bd f7 c1 c4 3d
       -0.013132768 0.053280316 -0.060541656 0.09607308
0002f0 0c 8d cb 3d 58 24 af 3d 3f 3a 53 3d 16 a2 be bd
       0.09939012 0.08551854 0.05156922 -0.09308259
000300 e5 28 a1 bd 8c 7a dc 3c 62 42 ca bd 22 4a a1 bd
       -0.07869128 0.026913904 -0.09875943 -0.07875468
000310 71 c9 fe ba 8d 82 6d 3d d5 a2 8f 3c 82 40 ae bd
       -0.0019438696 0.05798583 0.017533699 -0.08508398
000320 23 94 66 3d 8c 3f ca bd b3 81 fd bc 29 d5 d7 3d
       0.056293618 -0.09875402 -0.030945634 0.10538704
000330 83 b2 ba 3d 8f a3 f7 bc 77 97 6c 3d 6f 91 ef ba
       0.0911608 -0.030229358 0.057761636 -0.0018277596
000340 df 66 5a bd e5 db 58 3c 61 e5 ca 3d b9 8e 8c 3d
       -0.05332076 0.013236021 0.09907032 0.0686316
000350 21 05 9a bd 18 e3 65 bd ab a3 95 bd b1 23 21 bd
       -0.075205095 -0.056124777 -0.07306608 -0.03934068
000360 1c 4b 54 bd b8 a8 57 bd 41 ef e8 3c d8 0d 9f bd
       -0.051829442 -0.052651137 0.028434398 -0.07766312
000370 82 79 b1 3d 9f ae 48 bd 76 d4 9e 3d 4a 4f 9a 3d
       0.08665754 -0.048994657 0.077553675 0.075346544
000380 33 d5 52 bd 76 7b ad 3b 4c 64 14 ba 4f 55 f2 3d
       -0.051472854 0.0052942587 -0.00056606974 0.118326776
000390 01 86 ad 3d 28 12 0a 3d 6f 3b 98 bd 94 a9 0c 3d
       0.08472825 0.03370872 -0.07433211 0.03434141
0003a0 7c 90 5b bd 4c 3b 0b bd 9f 3b d7 bc dc b6 08 3d
       -0.053604588 -0.033992097 -0.026273547 0.033377513
0003b0 06 03 c6 bd 2f 02 7b 3d 70 6a fb 3b 23 9e 6a bd
       -0.096685454 0.06128138 0.0076726004 -0.057279717
0003c0 c5 c6 af bd 2b 70 85 bd df 9b 12 bd 25 5f 11 bd
       -0.08582834 -0.06515535 -0.03579318 -0.035491128
0003d0 9d 4c 72 bd 53 fa bc bd 10 21 a0 bd 2d a7 54 3b
       -0.059155095 -0.09227433 -0.07818806 0.0032448277
0003e0 62 82 f8 3c 74 bf 73 bc 7e c7 9d 3d ef a6 98 bd
       0.030335609 -0.014877189 0.07704066 -0.07453715
0003f0 33 34 90 bd 4e da 94 bd 36 72 da 3d 38 f3 92 bc
       -0.07041206 -0.07268201 0.10666315 -0.017938241

conv_block_2.2.bias f4 [10]
000000 9f 02 0a bc 5b 86 db bc 60 9a 28 3d b8 a8 82 bd
       -0.0084234765 -0.026797464 0.04116285 -0.06379837
000010 9c 91 a4 3c 05 08 24 bd 01 d2 d0 3d 66 7e 5a 3d
       0.020088963 -0.04004671 0.10196305 0.0533432
000020 76 69 29 bd 55 e3 a4 3d
       -0.04136034 0.08051173

classifier.1.weight f4 [3, 1690]
000000 52 73 3b bc 26 c5 ac 3c bc 27 9f bc 49 36 80 bc
       -0.011441069 0.021090101 -0.019428127 -0.015650885
000010 43 b1 4c 3c a9 1b 34 bb 3d 37 2f 3c c0 5d 99 3c
       0.012493434 -0.0027482307 0.010694322 0.018721461
000020 a6 71 8e bc d5 0f 69 3c 1d e6 4d 3c 92 cb 99 bb
       -0.017388176 0.014224966 0.01256707 -0.004693457
000030 40 79 87 bc ff e3 94 bc d7 05 15 bb 68 fd 5f bc
       -0.016537309 -0.018175123 -0.0022739077 -0.013671257
000040 54 fc 54 bc 2d 85 6d bc 0c 7c ee bb 50 d6 52 3b
       -0.012999613 -0.014497084 -0.007277971 0.0032171197
000050 c9 0b 0b 3c 4b a8 ab 3c c2 ff 9b 3c 63 09 6c bc
       0.0084866965 0.020954272 0.019042853 -0.014406535
000060 92 79 40 3c 3a 93 a7 bb ed 82 43 bc 87 04 e7 bb
       0.011747735 -0.0051139863 -0.011933071 -0.0070501002
000070 3c 95 23 bc 5c 81 56 3c 38 50 75 bc bc 7a 89 bc
       -0.009984311 0.013092365 -0.014972739 -0.016782157
000080 64 71 76 bb e6 9c 36 bc 6d 9a a4 3c 56 8a a8 bc
       -0.0037604207 -0.011145806 0.020093167 -0.020573776
000090 07 0d b1 bc b6 12 d3 bc 9d f3 ec ba 13 a6 97 bc
       -0.021612657 -0.025765758 -0.0018077974 -0.018511808
0000a0 a7 bd 13 3c e4 13 96 bc ac 71 98 bc 87 9e 48 3c
       0.009017385 -0.018320031 -0.01860889 0.012244827
0000b0 ce 9a 86 bb 77 66 89 bc 40 65 2e bc 78 bf c5 3c
       -0.0041078096 -0.016772492 -0.010644257 0.024139151
0000c0 fc 94 12 3b 9c 52 9e 3a 80 04 61 3a 78 7e a5 bb
       0.0022366634 0.0012079063 0.00085837394 -0.0050504766
0000d0 dc d0 9a bc 71 d7 93 bc b8 3c 55 3c 62 68 da 3b
       -0.01889842 -0.018047066 0.013014965 0.0066652754
0000e0 dc 05 80 bc df 19 47 bc ae f4 b5 bb 76 9c 28 bc
       -0.015627794 -0.012152164 -0.0055528497 -0.010291209
0000f0 60 24 4b 3b 5a 68 cf bb 76 4e 85 bc f5 5d 6a bc
       0.0030997023 -0.0063295783 -0.016272765 -0.014304628
000100 fc 6e 40 3c 34 63 b9 3c 5c 88 77 3c f5 a2 36 bc
       0.011745211 0.022630312 0.015108194 -0.01114725
000110 d3 77 04 3c 04 52 2b bc 4c 56 a1 bc d2 43 0d bc
       0.008085209 -0.010456566 -0.01969447 -0.008622127
000120 68 71 52 ba 78 20 cf 3c 59 e1 93 ba fb 48 a2 bb
       -0.0008027763 0.025284037 -0.0011282369 -0.0049525476
000130 58 54 5c 3c 37 cb 56 3c 50 63 d8 ba 72 f4 86 bc
       0.0134478435 0.013109974 -0.001650909 -0.016473982
000140 bf 42 18 bc cb 44 3d bc f9 59 cb bb c7 ae a0 bc
       -0.009293257 -0.011552046 -0.006205794 -0.01961459
000150 d0 6b 98 bb 96 09 00 bc 9e 28 7b bc d6 dc 17 3c
       -0.004651524 -0.007814785 -0.015329508 0.00926896
000160 c0 5a 5c bb 61 a2 2c 3b 88 3d 59 bb e8 18 9b 3b
       -0.0033623427 0.0026341903 -0.0033148248 0.0047331937
000170 a0 8a 6f bb e9 cf e4 3b 0d 04 73 bc 74 78 bf 3c
       -0.0036551133 0.0069827926 -0.014832509 0.023372866
000180 9d 97 fc 3b 2a d2 ce 3c 6b 6d 71 bb 61 d5 f9 3b
       0.0077085034 0.025246698 -0.00368389 0.0076243137
000190 97 32 39 3c d3 3b c3 bb d6 cf 58 bc 9b 6a 55 bc
       0.011303565 -0.0059580593 -0.013233146 -0.013025905
0001a0 dd 4d f0 3c 5a 8f b9 bb 94 8c a2 3a a8 54 e2 3c
       0.029334003 -0.005662841 0.0012401515 0.027628258
0001b0 ec 06 b2 3c c2 c0 2c 3c 66 98 16 3b bd 79 c2 3c
       0.021731816 0.010544004 0.002297902 0.02373969
0001c0 a8 f5 31 bc ac ab 7b bc 96 9b 35 3c 5f 29 03 bc
       -0.010861792 -0.015360754 0.011084458 -0.008005469
0001d0 0e c7 b2 3b 98 d8 1e 3c 9e 6c eb bb e0 8f f2 3b
       0.005455858 0.009695195 -0.007184579 0.007402405
0001e0 52 25 35 bc ac 24 08 bc 69 00 64 bc 74 0b 2e 3c
       -0.011056261 -0.0083095245 -0.013916113 0.010622848
0001f0 83 18 c2 3c 28 1e b0 3b 32 ce e6 3c 18 22 81 bc
       0.023693329 0.0053746887 0.028174493 -0.015763327
000200 95 8d f1 3b f0 4d 69 bc 0d 73 87 3c 0d 6c 17 3c
       0.007371614 -0.014239773 0.016534353 0.00924207
000210 4c 2f df 3c b1 86 dc 3c f5 10 b5 3c c5 90 8c 3b
       0.027244233 0.026919695 0.022102812 0.004289719
000220 48 8c 55 bc d7 d7 00 3a c5 e9 02 3c a5 1d f7 bb
       -0.013033934 0.0004914975 0.007990305 -0.0075413757
000230 37 74 28 bc b6 da 97 bc 97 79 88 3c 52 26 8c ba
       -0.010281614 -0.018536907 0.016659541 -0.0010692573
000240 e2 a8 13 3c 06 64 ba 3c 8d 51 db 3c af 65 bd 3c
       0.009012433 0.022752773 0.026772285 0.023119776
000250 8b 4d a1 3a b8 02 b4 bb 67 3c 35 3c 39 69 ec 3c
       0.0012306435 -0.005493488 0.011061764 0.028858768
000260 91 73 6a 3c 6a 66 b4 b9 c6 c7 da 3c fe 45 b5 3c
       0.01430978 -0.0003440858 0.026706588 0.022128101
000270 18 a1 94 ba de 3b 90 bc 9d ee d7 bc 52 7d 5c bc
       -0.0011339514 -0.017606672 -0.026358897 -0.013457613
000280 d2 14 10 3b 4f d4 e3 3b 60 42 84 bc 03 f5 65 bc
       0.0021985066 0.0069527994 -0.016144931 -0.014035466
000290 ec 87 85 3c 41 ee 94 3c 76 af 2f 3c ef 17 44 bc
       0.016300164 0.018180015 0.0107229855 -0.011968597
0002a0 76 3c 72 bb f1 af dc 3c 2b 8d 30 bc a2 0b 98 3a
       -0.0036962307 0.026939364 -0.010775845 0.0011600147
0002b0 2b 8b 9e bc e2 3c 9a bb 2c 2f ac bc 7b 3d d4 3b
       -0.01935347 -0.004706965 -0.021018587 0.0064770556
0002c0 00 74 4a 3c 14 4e 44 bc 96 cd 8c bc 1b bd b3 bc
       0.012356758 -0.011981506 -0.017187875 -0.021940758
0002d0 27 68 92 3c df ca 56 3c 0a 19 33 bb 4d 0f 97 3c
       0.01787193 0.013109892 -0.0027328157 0.018439913
0002e0 24 f3 52 bc 77 0e df ba 80 68 8a bc da 58 1c 3c
       -0.012875352 -0.0017017861 -0.016895533 0.009542668
0002f0 41 80 43 3c 1e 11 8c bc ea ff f1 b9 58 a3 f0 3b
       0.011932434 -0.017098006 -0.00046157773 0.007343691
000300 a2 7d db bc 9a 2a d7 bb b1 37 46 3c ea 9d 94 bc
       -0.026793305 -0.006566358 0.012098239 -0.018141706
000310 45 c0 b7 3c 8b c0 a6 3b 08 64 c6 3b 1d 07 bc 3b
       0.022430548 0.005088871 0.006054405 0.0057381527
000320 ef da 92 3c a4 ef 79 bc 87 53 8e bc 86 7a ce 3b
       0.017926661 -0.015254889 -0.017373813 0.006301227
000330 ac 44 7c ba 4b 2f c6 bb 80 de 28 38 38 35 c7 bc
       -0.000962327 -0.006048118 4.026154e-05 -0.024317369
000340 cb f5 5a bc 74 d4 81 bc 01 b6 ec 3c 1a 6b 2f bc
       -0.013364266 -0.015848376 0.02889538 -0.010706687
000350 2c 55 5a 3b 7d 87 0e 3a e4 30 89 b9 97 93 2a 3c
       0.0033314927 0.00054370594 -0.00026167103 0.010411165
000360 ea 26 a3 3c 88 cb 7c 3c e7 e7 1c 3c 8c fb 01 3d
       0.019916017 0.015429385 0.009576774 0.031734034
000370 26 21 89 bc 6a d9 be 3b 50 4f 05 3d d5 2d 74 bc
       -0.01673944 0.0058242576 0.03254634 -0.014903505
000380 23 ae d8 3c 5a 6b 70 3c 8b c2 a4 3b 34 e7 9b 3c
       0.026450222 0.014674032 0.005028074 0.019031145
000390 d3 3f f1 ba b7 f9 59 3c 65 a8 27 3d fc f6 60 3c
       -0.0018405862 0.013304166 0.040932078 0.013730761
0003a0 94 7a ad 3c 31 a4 a4 3b f6 67 89 bc fe 72 07 3c
       0.021176614 0.005024456 -0.016773205 0.008267162
0003b0 f8 d9 6c 3c d3 77 c9 bb e3 db a7 3c 49 f6 ba 3b
       0.014456265 -0.0061483174 0.020490592 0.005705629
0003c0 03 a1 b0 3c 51 57 9e 3c 43 be 03 3c 52 fa 16 3c
       0.021561151 0.019328745 0.008040967 0.009214954
0003d0 e0 e6 bb 36 af 9e f8 3c c5 16 eb bb 1f 67 02 bc
       5.5999117e-06 0.030349104 -0.007174345 -0.007959156
0003e0 7a 27 10 3c f5 e9 19 3d bf 95 a7 3c 29 34 43 3c
       0.008798474 0.037576634 0.020457147 0.011914291
0003f0 99 f5 e5 3b b4 62 5b 3c 11 19 50 b9 20 d1 91 3c
       0.007017803 0.013390232 -0.00019845764 0.017799914

classifier.1.bias f4 [3]
000000 d9 ba 20 3c 63 50 a8 bc 40 12 08 3c
       0.009810173 -0.020546144 0.008305132
